…
 [1.0000e+00 2.6061e+04]
 [2.0000e+00 2.7990e+04]]
Train matrix:  (386000, 32, 32, 1) (386000, 3)
Validation matrix:  (14000, 32, 32, 1) (14000, 3)
Test matrix:  (60000, 32, 32, 1) (60000, 3)
Building model and compiling functions...
PARAMETERS OF MODELS:  relu   5   256   0.5
Starting training...: model  Image-Single  batch size  100  with input  32_32_last20sec_img.npz
_________________________________________________________________
Layer (type)                 Output Shape              Param #   
=================================================================
conv2d (Conv2D)              (None, 28, 28, 32)        832       
_________________________________________________________________
conv2d_1 (Conv2D)            (None, 28, 28, 32)        25632     
_________________________________________________________________
conv2d_2 (Conv2D)            (None, 28, 28, 32)        25632     
_________________________________________________________________
conv2d_3 (Conv2D)            (None, 28, 28, 32)        25632     
_________________________________________________________________
max_pooling2d (MaxPooling2D) (None, 14, 14, 32)        0         
_________________________________________________________________
conv2d_4 (Conv2D)            (None, 14, 14, 64)        51264     
_________________________________________________________________
conv2d_5 (Conv2D)            (None, 14, 14, 64)        102464    
_________________________________________________________________
max_pooling2d_1 (MaxPooling2 (None, 7, 7, 64)          0         
_________________________________________________________________
conv2d_6 (Conv2D)            (None, 7, 7, 128)         204928    
_________________________________________________________________
max_pooling2d_2 (MaxPooling2 (None, 3, 3, 128)         0         
_________________________________________________________________
flatten (Flatten)            (None, 1152)              0         
_________________________________________________________________
dense (Dense)                (None, 256)               295168    
_________________________________________________________________
dropout (Dropout)            (None, 256)               0         
_________________________________________________________________
dense_1 (Dense)              (None, 3)                 771       
=================================================================
Total params: 732,323
Trainable params: 732,323
Non-trainable params: 0
_________________________________________________________________
Train on 386000 samples, validate on 14000 samples
Epoch 1/30
 - 54s - loss: 1.1122 - acc: 0.4082 - precision: 0.3332 - recall: 0.9997 - val_loss: 1.1412 - val_acc: 0.2806 - val_precision: 0.3333 - val_recall: 1.0000
…
Label distribution in the test set  [[0.000e+00 9.480e+02]
 [1.000e+00 2.844e+03]
 [2.000e+00 3.555e+03]]
Train matrix:  (45741, 32, 32, 2) (45741, 3)
Validation matrix:  (1659, 32, 32, 2) (1659, 3)
Test matrix:  (7347, 32, 32, 2) (7347, 3)
Building model and compiling functions...
Starting training...: model  Image-Multi  batch size  10  with input  32_32_multichannel_img.npz
_________________________________________________________________
Layer (type)                 Output Shape              Param #   
=================================================================
conv2d_7 (Conv2D)            (None, 30, 30, 32)        608       
_________________________________________________________________
conv2d_8 (Conv2D)            (None, 30, 30, 32)        9248      
_________________________________________________________________
conv2d_9 (Conv2D)            (None, 30, 30, 32)        9248      
_________________________________________________________________
conv2d_10 (Conv2D)           (None, 30, 30, 32)        9248      
_________________________________________________________________
max_pooling2d_3 (MaxPooling2 (None, 15, 15, 32)        0         
_________________________________________________________________
conv2d_11 (Conv2D)           (None, 15, 15, 64)        18496     
_________________________________________________________________
conv2d_12 (Conv2D)           (None, 15, 15, 64)        36928     
_________________________________________________________________
max_pooling2d_4 (MaxPooling2 (None, 7, 7, 64)          0         
_________________________________________________________________
conv2d_13 (Conv2D)           (None, 7, 7, 128)         73856     
_________________________________________________________________
max_pooling2d_5 (MaxPooling2 (None, 3, 3, 128)         0         
_________________________________________________________________
flatten_1 (Flatten)          (None, 1152)              0         
_________________________________________________________________
dense_2 (Dense)              (None, 256)               295168    
_________________________________________________________________
dropout_1 (Dropout)          (None, 256)               0         
_________________________________________________________________
dense_3 (Dense)              (None, 3)                 771       
=================================================================
Total params: 453,571
Trainable params: 453,571
Non-trainable params: 0
_________________________________________________________________
Train on 45741 samples, validate on 1659 samples
Epoch 1/30
 - 34s - loss: 1.1085 - acc: 0.4115 - precision: 0.3333 - recall: 0.9998 - val_loss: 1.0727 - val_acc: 0.4491 - val_precision: 0.3333 - val_recall: 1.0000
…
