…
Label distribution in the test set  [[0.000e+00 6.080e+03]
 [1.000e+00 2.792e+04]]
Train matrix:  (264000, 32, 32, 1) (264000, 2)
Validation matrix:  (8000, 32, 32, 1) (8000, 2)
Test matrix:  (34000, 32, 32, 1) (34000, 2)
Building model and compiling functions...
PARAMETERS OF MODELS:  relu   5   256   0.5
Starting training...: model  Image-Single  batch size  100  with input  32_32_last20sec_img.npz
_________________________________________________________________
Layer (type)                 Output Shape              Param #   
=================================================================
conv2d (Conv2D)              (None, 28, 28, 32)        832       
_________________________________________________________________
conv2d_1 (Conv2D)            (None, 28, 28, 32)        25632     
_________________________________________________________________
conv2d_2 (Conv2D)            (None, 28, 28, 32)        25632     
_________________________________________________________________
conv2d_3 (Conv2D)            (None, 28, 28, 32)        25632     
_________________________________________________________________
max_pooling2d (MaxPooling2D) (None, 14, 14, 32)        0         
_________________________________________________________________
conv2d_4 (Conv2D)            (None, 14, 14, 64)        51264     
_________________________________________________________________
conv2d_5 (Conv2D)            (None, 14, 14, 64)        102464    
_________________________________________________________________
max_pooling2d_1 (MaxPooling2 (None, 7, 7, 64)          0         
_________________________________________________________________
conv2d_6 (Conv2D)            (None, 7, 7, 128)         204928    
_________________________________________________________________
max_pooling2d_2 (MaxPooling2 (None, 3, 3, 128)         0         
_________________________________________________________________
flatten (Flatten)            (None, 1152)              0         
_________________________________________________________________
dense (Dense)                (None, 256)               295168    
_________________________________________________________________
dropout (Dropout)            (None, 256)               0         
_________________________________________________________________
dense_1 (Dense)              (None, 2)                 514       
=================================================================
Total params: 732,066
Trainable params: 732,066
Non-trainable params: 0
_________________________________________________________________
Train on 264000 samples, validate on 8000 samples
Epoch 1/30
 - 43s - loss: 0.7009 - acc: 0.5976 - precision: 0.4998 - recall: 0.9996 - val_loss: 0.7253 - val_acc: 0.4976 - val_precision: 0.5000 - val_recall: 1.0000
…
Label distribution in the validation set  [[  0. 237.]
 [  1. 711.]]
Label distribution in the test set  [[0.000e+00 9.480e+02]
 [1.000e+00 3.555e+03]]
Train matrix:  (31047, 32, 32, 2) (31047, 2)
Validation matrix:  (948, 32, 32, 2) (948, 2)
Test matrix:  (4503, 32, 32, 2) (4503, 2)
Building model and compiling functions...
Starting training...: model  Image-Multi  batch size  10  with input  32_32_multichannel_img.npz
_________________________________________________________________
Layer (type)                 Output Shape              Param #   
=================================================================
conv2d_7 (Conv2D)            (None, 30, 30, 32)        608       
_________________________________________________________________
conv2d_8 (Conv2D)            (None, 30, 30, 32)        9248      
_________________________________________________________________
conv2d_9 (Conv2D)            (None, 30, 30, 32)        9248      
_________________________________________________________________
conv2d_10 (Conv2D)           (None, 30, 30, 32)        9248      
_________________________________________________________________
max_pooling2d_3 (MaxPooling2 (None, 15, 15, 32)        0         
_________________________________________________________________
conv2d_11 (Conv2D)           (None, 15, 15, 64)        18496     
_________________________________________________________________
conv2d_12 (Conv2D)           (None, 15, 15, 64)        36928     
_________________________________________________________________
max_pooling2d_4 (MaxPooling2 (None, 7, 7, 64)          0         
_________________________________________________________________
conv2d_13 (Conv2D)           (None, 7, 7, 128)         73856     
_________________________________________________________________
max_pooling2d_5 (MaxPooling2 (None, 3, 3, 128)         0         
_________________________________________________________________
flatten_1 (Flatten)          (None, 1152)              0         
_________________________________________________________________
dense_2 (Dense)              (None, 256)               295168    
_________________________________________________________________
dropout_1 (Dropout)          (None, 256)               0         
_________________________________________________________________
dense_3 (Dense)              (None, 2)                 514       
=================================================================
Total params: 453,314
Trainable params: 453,314
Non-trainable params: 0
_________________________________________________________________
Train on 31047 samples, validate on 948 samples
Epoch 1/30
 - 24s - loss: 0.6978 - acc: 0.5997 - precision: 0.4998 - recall: 0.9997 - val_loss: 0.6061 - val_acc: 0.7342 - val_precision: 0.5000 - val_recall: 1.0000
…
