…
Label distribution in the test set  [[0.000e+00 2.940e+02]
 [1.000e+00 1.372e+03]]
Train matrix:  (12936, 100, 32, 32, 1) (12936, 2)
Validation matrix:  (392, 100, 32, 32, 1) (392, 2)
Test matrix:  (1666, 100, 32, 32, 1) (1666, 2)
Building model and compiling functions...
PARAMETERS OF MODELS:  relu   5   256
Starting training...: model  Video-Single  batch size  32  with input  32_32_last20sec_videos.npz
_________________________________________________________________
Layer (type)                 Output Shape              Param #   
=================================================================
conv3d (Conv3D)              (None, 91, 28, 28, 32)    8032      
_________________________________________________________________
conv3d_1 (Conv3D)            (None, 91, 28, 28, 32)    256032    
_________________________________________________________________
conv3d_2 (Conv3D)            (None, 91, 28, 28, 32)    256032    
_________________________________________________________________
conv3d_3 (Conv3D)            (None, 91, 28, 28, 32)    256032    
_________________________________________________________________
max_pooling3d (MaxPooling3D) (None, 9, 5, 5, 32)       0         
_________________________________________________________________
conv3d_4 (Conv3D)            (None, 9, 5, 5, 64)       512064    
_________________________________________________________________
conv3d_5 (Conv3D)            (None, 9, 5, 5, 64)       1024064   
_________________________________________________________________
max_pooling3d_1 (MaxPooling3 (None, 4, 2, 2, 64)       0         
_________________________________________________________________
flatten (Flatten)            (None, 1024)              0         
_________________________________________________________________
dense (Dense)                (None, 256)               262400    
_________________________________________________________________
dropout (Dropout)            (None, 256)               0         
_________________________________________________________________
dense_1 (Dense)              (None, 2)                 514       
=================================================================
Total params: 2,575,170
Trainable params: 2,575,170
Non-trainable params: 0
_________________________________________________________________
Train on 12936 samples, validate on 392 samples
Epoch 1/10
 - 549s - loss: 0.6698 - acc: 0.5986 - precision: 0.4988 - recall: 0.9976 - val_loss: 0.6996 - val_acc: 0.5000 - val_precision: 0.5000 - val_recall: 1.0000
…
Label distribution in the test set  [[  0.  84.]
 [  1. 315.]]
Train matrix:  (2751, 10, 32, 32, 2) (2751, 2)
Validation matrix:  (84, 10, 32, 32, 2) (84, 2)
Test matrix:  (399, 10, 32, 32, 2) (399, 2)
Building model and compiling functions...
PARAMETERS OF MODELS:  relu   3   128
Starting training...: model  Video-Multi  batch size  10  with input  32_32_multichannel_videos.npz
_________________________________________________________________
Layer (type)                 Output Shape              Param #   
=================================================================
conv3d_6 (Conv3D)            (None, 9, 30, 30, 32)     1184      
_________________________________________________________________
conv3d_7 (Conv3D)            (None, 9, 30, 30, 32)     18464     
_________________________________________________________________
conv3d_8 (Conv3D)            (None, 9, 30, 30, 32)     18464     
_________________________________________________________________
conv3d_9 (Conv3D)            (None, 9, 30, 30, 32)     18464     
_________________________________________________________________
max_pooling3d_2 (MaxPooling3 (None, 4, 15, 30, 32)     0         
_________________________________________________________________
conv3d_10 (Conv3D)           (None, 4, 15, 30, 64)     36928     
_________________________________________________________________
conv3d_11 (Conv3D)           (None, 4, 15, 30, 64)     73792     
_________________________________________________________________
max_pooling3d_3 (MaxPooling3 (None, 2, 7, 15, 64)      0         
_________________________________________________________________
flatten_1 (Flatten)          (None, 13440)             0         
_________________________________________________________________
dense_2 (Dense)              (None, 128)               1720448   
_________________________________________________________________
dropout_1 (Dropout)          (None, 128)               0         
_________________________________________________________________
dense_3 (Dense)              (None, 2)                 258       
=================================================================
Total params: 1,888,002
Trainable params: 1,888,002
Non-trainable params: 0
_________________________________________________________________
Train on 2751 samples, validate on 84 samples
Epoch 1/10
 - 5s - loss: 0.6555 - acc: 0.6136 - precision: 0.4982 - recall: 0.9964 - val_loss: 0.4593 - val_acc: 0.9405 - val_precision: 0.5000 - val_recall: 1.0000
…
